data.pth (torch, 17770 bytes, 6 tensors)

l1.weight f4 [8, 306]
0	0x3e123fac	0.14282101
1	0x3f058cb7	0.5216784
2	0xbc46c38c	-0.012131583
3	0x3fbe688b	1.4875654
4	0xbda87f48	-0.08227402
5	0x3f3d3f64	0.7392485
6	0xbf67a9b3	-0.90493315
7	0x3f258269	0.64652115
8	0x3ecb039b	0.39651188
9	0x3e7d4936	0.24734959
10	0xbf22e918	-0.6363692
11	0x3db36e3d	0.08761261
12	0xbd3cdf77	-0.04611155
13	0x3fb34154	1.4004312
14	0x3fa4a890	1.2863941
15	0xbe5c2328	-0.21497786
16	0x3eedcc40	0.46444893
17	0x3f534305	0.8252414
18	0x3e756c07	0.2396699
19	0x3e99142a	0.29898196
20	0x3ea62f90	0.32458162
21	0x3ea29b8e	0.31759304
22	0x3ea9a4b0	0.3313346
23	0x3ee57668	0.448169
24	0x3ea2202f	0.3166518
25	0x3f2b89a8	0.6700692
26	0xbdf67b6f	-0.12035262
27	0xbee741ed	-0.45167485
28	0xbd8e1b40	-0.06938791
29	0x3f5333d7	0.82500976
30	0x3b94cf1a	0.00454129
31	0xbe76d581	-0.24104883
32	0xbe4cbbb1	-0.19993474
33	0x3e6e4291	0.2326758
34	0x3f828b62	1.0198786
35	0x3e0de1c3	0.13855653
36	0xbd9863d0	-0.07440913
37	0x3e9b0d95	0.302838
38	0x3f0a0dd8	0.53927374
39	0x3f0267ba	0.50939524
40	0x3ce6ca7c	0.028172724
41	0x3e8ac7d0	0.2710557
42	0x3d5db298	0.0541254
43	0x3d9039df	0.07042288
44	0x3fd120bb	1.6338114
45	0xbf43a772	-0.76427376
46	0x3e8cc664	0.2749511
47	0xbf2a3428	-0.66485834
48	0xbebc21b1	-0.36744455
49	0x3ef1d80a	0.47235137
50	0xbe17710e	-0.1478922
51	0x3fc8ff0a	1.5702832
52	0xbdfc50d2	-0.12320103
53	0x3f60f2e9	0.8787065
54	0xbed4d9c3	-0.4157239
55	0x3eacfd35	0.33786932
56	0x3ed1f745	0.41008964
57	0x3ee9c501	0.45658115
58	0x3f666ca1	0.90009505
59	0x3e9939ae	0.2992682
60	0x3f672f68	0.9030671
61	0xbf1ed772	-0.62047493
62	0x3ecb0c38	0.3965776
63	0xbe968c65	-0.29403988
64	0x38ed2b11	0.000113090624
65	0xbe4437f8	-0.19161975
66	0x3ec27dd8	0.37986636
67	0x3eaa4a73	0.33259925
68	0x3f06807a	0.5253979
69	0x3f117fd2	0.56835663
70	0x3d923723	0.07139423
71	0xbe40f5d0	-0.1884377
72	0x3c527e7d	0.01284754
73	0x3f5e02b1	0.86722857
74	0xbf38271d	-0.7193468
75	0xbe7b5b71	-0.24546601
76	0x3df8a1d1	0.12140239
77	0x3eb87649	0.36027744
78	0x3e3d2e8c	0.18474787
79	0x3e8be51f	0.27323243
80	0x3f169a3b	0.58829087
81	0x3e4a803d	0.19775482
82	0x3e7abe04	0.24486548
83	0x3f005f8e	0.50145805
84	0x3d50791b	0.050896745
85	0x3f543123	0.82887477
86	0x3f58dd8d	0.8471306
87	0xbf11aaec	-0.5690143
88	0x3f16286c	0.5865543
89	0x3e3d20de	0.18469569
90	0xbcec2b13	-0.028829133
91	0x3e2e8b39	0.17045297
92	0x3f16e942	0.58949673
93	0xbeceb04d	-0.40368882
94	0x3f0f346e	0.55939376
95	0x39e27abc	0.00043197523
96	0xbf8c2842	-1.0949786
97	0x3eea3299	0.45741728
98	0xbd889c32	-0.06670417
99	0x3f5da63a	0.86581767
100	0x3e2c2dfd	0.16814418
101	0x3ea1e4a8	0.31619763
102	0x3f09a01a	0.5375992
103	0x3efdc5c5	0.4956495
104	0xbe4fdf51	-0.20300032
105	0x3f3154c7	0.69269985
106	0xbdf3306f	-0.11874472
107	0x3e7d4d3c	0.24736494
108	0x3f10b183	0.5652086
109	0xbdbf001d	-0.093261935
110	0x3f66ed3a	0.9020573
111	0x3e93df02	0.2888108
112	0xbde6e660	-0.11274409
113	0xbb9e504c	-0.0048313495
114	0x3d7efc19	0.062252138
115	0xbe0c29a8	-0.13687766
116	0x3ed96d37	0.42466137
117	0x3f312970	0.69203854
118	0x3ea7c382	0.32766348
119	0x3f3c00bd	0.73438627
120	0x3f9a642d	1.2061821
121	0x3ec81459	0.39078024
122	0x3f9ba303	1.2159122
123	0x3fa5450a	1.2911694
124	0x3fa4b48d	1.28676
125	0x3fac2320	1.3448219
126	0x3e5539f1	0.20822884
127	0x3f05e78f	0.52306455
128	0xbe70523e	-0.23468873
129	0xbd2cf6ca	-0.042227544
130	0x3ef791f3	0.48353538
131	0xbe85e519	-0.2615135
132	0xbf8066a8	-1.0031328
133	0xbe44a7b3	-0.19204597
134	0x3ee462eb	0.44606718
135	0x3e6cf6ca	0.23141018
136	0x3e34fbbf	0.17674159
137	0x3ea8b849	0.32953098
138	0xbdd62a00	-0.104572296
139	0x3e4a4bfd	0.1975555
140	0x3f2cc3e9	0.67486435
141	0x3efeaf60	0.49743176
142	0x3f6dcda8	0.9289193
143	0x3e76008e	0.24023649
144	0x3e47f94d	0.19528694
145	0x3ecb7466	0.39737242
146	0x3e978841	0.2959614
147	0x3fa1f1a0	1.2651863
148	0x3e96c1d5	0.29444757
149	0x3fb1435d	1.3848683
150	0x3d75a67a	0.059973218
151	0x3ea9c9ae	0.33161682
152	0x3d6d3036	0.057907306
153	0x3eef4ed1	0.4673982
154	0xbf1e234a	-0.61772597
155	0x3f45cd51	0.7726641
156	0xbec133fe	-0.3773498
157	0x3f488266	0.7832397
158	0xbebe7fea	-0.37206966
159	0x3ea0452f	0.31302783
160	0x3f435a06	0.7630924
161	0x3eed6606	0.463669
162	0x3f08adc9	0.53390175
163	0x3e109b48	0.14121735
164	0x3dc2440f	0.094856374
165	0x3ef18318	0.4717033
166	0x3e46ad6b	0.19402091
167	0x3f7a5e55	0.9780019
168	0xbf7dea4a	-0.9918562
169	0x3d981fa4	0.0742791
170	0x4000f123	2.0147178
171	0x3f217f26	0.6308464
172	0x3e983f6c	0.29735887
173	0x3d53fb49	0.051753316
174	0x3e996687	0.29961035
175	0x3ea326f6	0.31865662
176	0x3f8372d6	1.026942
177	0xbd3f62cf	-0.04672509
178	0x3e6ac9f0	0.22928596
179	0x3d90bbfc	0.07067105
180	0xbf1559db	-0.58340234
181	0x3fa8237f	1.3135833
182	0xbc4b548c	-0.012410294
183	0x3d66b63b	0.056326132
184	0xbeebe5dd	-0.4607381
185	0xbe0cb307	-0.13740169
186	0x3ec122a4	0.3772174
187	0x3f3c0f9c	0.7346132
188	0xbd6ffbac	-0.058589622
189	0xbf1830e5	-0.5944961
190	0x3f92c1d0	1.1465397
191	0x3f3f74f0	0.7478781
192	0xbf4b3ce6	-0.793898
193	0x3e66bc5b	0.2253279
194	0x3ed0365c	0.40666473
195	0x3fe132fc	1.7593684
196	0x3dafe57c	0.085886925
197	0x3f492e75	0.7858651
198	0x3e86c29d	0.26320353
199	0x3e968798	0.29400325
200	0xbf206448	-0.6265302
201	0x3ec3af5d	0.3821973
202	0x3f77e60c	0.968354
203	0x3eb2e21a	0.34938127
204	0xbe88a35f	-0.26687142
205	0xbdb7ea70	-0.08980262
206	0x3edd8747	0.4326727
207	0x3e91f7fe	0.28509516
208	0x3e907e71	0.28221467
209	0x3eaca6c8	0.33720994
210	0x3e8c51eb	0.27406248
211	0x3e266947	0.16251098
212	0x3f475190	0.7785883
213	0x3ee54e10	0.4478612
214	0xbe9d2c58	-0.30697894
215	0x3dc12c36	0.09432261
216	0xbe13a38f	-0.14417861
217	0x3e2a5e50	0.1663754
218	0xbe966453	-0.29373416
219	0xbdba5026	-0.09097318
220	0x3f427682	0.7596208
221	0x3f32d267	0.698523
222	0xbd9f3a50	-0.07774794
223	0x3eef20c4	0.46704686
224	0xbe3eab05	-0.18619926
225	0x3ee449d4	0.44587576
226	0x3f3dc5e0	0.7413006
227	0x3e294439	0.16529931
228	0xbe76df33	-0.24108581
229	0xbf19e7e0	-0.6011944
230	0xbf0bc3e3	-0.54595774
231	0x3f98efbb	1.194816
232	0x3ea566ee	0.32305092
233	0x3efcdc92	0.49387032
234	0x3edc11b9	0.4298227
235	0xbe1cbb65	-0.1530586
236	0x3e42b310	0.1901362
237	0xbe7232ff	-0.23652266
238	0xbe8e982b	-0.2785047
239	0x3ef160dc	0.4714421
240	0xbd9f01c0	-0.07764006
241	0x3e5d56c9	0.21615137
242	0x3d1ddaaf	0.03853863
243	0x3e90e003	0.28295907
244	0x3e06c166	0.13159713
245	0x3f2532b3	0.64530486
246	0x3f3a372f	0.72740453
247	0xbf277100	-0.654068
248	0x3e739c9c	0.2379021
249	0x3f239bba	0.63909495
250	0xbf02610a	-0.5092932
251	0xbf1dd182	-0.6164781
252	0xbf7df6c7	-0.9920468
253	0x3d7b8e69	0.06141511
254	0x3e11c73b	0.14236157
255	0x3ef19617	0.47184822

l1.bias f4 [8]
0	0x3fb2eb8a	1.3978131
1	0x3ffc8f3a	1.9731209
2	0x3fc97679	1.573928
3	0x40052ed5	2.0809834
4	0x3fb378c0	1.4021225
5	0x3f9f8f43	1.2465595
6	0x3f94d4cc	1.162744
7	0x3f6073dc	0.8767679

l2.weight f4 [8, 8]
0	0x3fd6af82	1.6772311
1	0xbe01c4f7	-0.12672792
2	0x400403a7	2.062723
3	0x400c4876	2.1919227
4	0x40001b6f	2.0016744
5	0x3fd194c3	1.6373523
6	0x4029e878	2.6548138
7	0xbf4c1805	-0.7972415
8	0x402e0646	2.719133
9	0x3fe5e63d	1.7960888
10	0x3fc97113	1.5737633
11	0x3f0c8d92	0.5490352
12	0xbf92a692	-1.1457083
13	0x3e0d5d5b	0.13805144
14	0xbea6ca9d	-0.32576457
15	0x3f9f693b	1.2453989
16	0x3f7cc6fa	0.98741114
17	0x3ed65f92	0.4186979
18	0xbf6729c7	-0.9029812
19	0x3fec2a30	1.8450375
20	0x40048659	2.0707
21	0xbea95812	-0.33075005
22	0x4007195e	2.1109233
23	0x3f8a4aa1	1.0804025
24	0x3f526b15	0.82194644
25	0x400322cd	2.048999
26	0x3fe1e037	1.764655
27	0xbfe07bcb	-1.7537779
28	0x40049634	2.0716677
29	0xbdb21d64	-0.08697012
30	0x400d1aa6	2.2047515
31	0xbd121cef	-0.035672124
32	0x3d900909	0.07032973
33	0x3eec522b	0.4615644
34	0x4046b87a	3.1050096
35	0x3fe9fd55	1.8280436
36	0x402098f4	2.5093355
37	0x406d5dc3	3.7088478
38	0x3dbd5817	0.092453174
39	0xbd82b763	-0.063826345
40	0xbfb33701	-1.4001161
41	0x3fab0419	1.3360626
42	0xbec23199	-0.37928465
43	0x3f07cad0	0.5304384
44	0x3f641b65	0.891043
45	0x3fed91b6	1.8560092
46	0x3e422543	0.18959527
47	0x400a645b	2.1623752
48	0x3f224181	0.633812
49	0x3fa4768f	1.2848681
50	0xbf1b972c	-0.60777545
51	0x3fbdbb9b	1.4822878
52	0x3eb57cbe	0.35446733
53	0x400d4492	2.2073102
54	0xbf6b3e03	-0.918915
55	0x4011808c	2.2734709
56	0xbf826e57	-1.0189923
57	0x3fe60d95	1.7972895
58	0x402b8422	2.6799397
59	0x403cf442	2.9524083
60	0x3f0db4b2	0.55353844
61	0xbf30eb01	-0.6910859
62	0xbf230a2e	-0.6368741
63	0x3ec0e75b	0.3767651

l2.bias f4 [8]
0	0x3eee02d9	0.46486548
1	0x3fbc17fb	1.4694818
2	0x3f82c599	1.0216552
3	0x3f4e1cc4	0.8051264
4	0x3e99e28b	0.3005565
5	0x3f078eab	0.5295207
6	0x3ead8e2a	0.33897525
7	0x3f8f6270	1.1201916

l3.weight f4 [17, 8]
0	0xbfa0613c	-1.2529674
1	0x3f2d05fe	0.6758727
2	0xbfa23ac8	-1.2674189
3	0xbfed6925	-1.8547713
4	0xbe7abc7f	-0.24485968
5	0xbe682a07	-0.22672282
6	0x3edce5c5	0.4314405
7	0xc0287672	-2.6322293
8	0x3eb26637	0.3484361
9	0x3b385fde	0.0028133313
10	0xbfdf0c0b	-1.742555
11	0xc0116cb2	-2.2722592
12	0x3f242dc8	0.64132357
13	0xc0118ab9	-2.274092
14	0xbf8f6f94	-1.1205926
15	0xc00af5de	-2.1712565
16	0xbe191d3c	-0.14952558
17	0xbfa7310b	-1.3061842
18	0x3f44ee00	0.7692566
19	0xc00b8862	-2.1801991
20	0xbe9881e1	-0.2978659
21	0xbe0339a3	-0.12814955
22	0xbec66088	-0.38745522
23	0xc036b4c0	-2.854782
24	0xc020c7bb	-2.5121906
25	0x3e0469f0	0.12931037
26	0xc041cb93	-3.0280502
27	0x3ee083a0	0.43850422
28	0xbf0bfc30	-0.5468168
29	0x3da516fd	0.08061025
30	0xbfb2f27b	-1.3980249
31	0x3f327126	0.697039
32	0xbf5dbc33	-0.86615294
33	0x3ee1cd78	0.44102073
34	0xbf193fbd	-0.5986288
35	0x3f43b141	0.76442343
36	0xbfe5b57f	-1.7946013
37	0xbf654641	-0.89560324
38	0xbf5f2d79	-0.8717876
39	0xbfba5cec	-1.4559608
40	0xbf561875	-0.8363107
41	0xbf67efd5	-0.9060033
42	0xbfc394bc	-1.5279765
43	0x3e9c9923	0.30585584
44	0xbe45652a	-0.19276872
45	0xbf8df91a	-1.1091645
46	0xc005baa2	-2.0895162
47	0xbeb40c6d	-0.3516573
48	0xbf464637	-0.7745089
49	0xbd0190a7	-0.03163209
50	0xc05ae4bd	-3.420211
51	0xbfcec953	-1.6155189
52	0x3cdf86a2	0.027285878
53	0xbf70f095	-0.941171
54	0xc018143c	-2.376235
55	0x3f8e358a	1.1110089
56	0xbf1a216c	-0.6020725
57	0xc03fa232	-2.9942746
58	0x3f133e7f	0.57517236
59	0x3f70f3c5	0.9412196
60	0xbf8c4eeb	-1.0961584
61	0x3ed165b9	0.4089792
62	0xc014f079	-2.3271773
63	0xbf45a8c4	-0.7721064
64	0x3e7a54b8	0.2444638
65	0xbf4bb96a	-0.79579794
66	0x3d9c2864	0.076248914
67	0xc061f20b	-3.5303981
68	0x3e422df9	0.1896285
69	0xc018de6e	-2.388576
70	0xc056da26	-3.3570647
71	0x3f0a4518	0.5401168
72	0x3e8de6b0	0.27715063
73	0xbdc3effc	-0.09567258
74	0x3f47f1c0	0.78103256
75	0x3e637084	0.2221089
76	0xbf800e8f	-1.0004443
77	0xc016a11b	-2.353583
78	0xc07625eb	-3.8460643
79	0xbf9c33ee	-1.2203348
80	0x3e631a26	0.22177944
81	0xc00d0e61	-2.2040026
82	0xbf203690	-0.62583256
83	0x3f003214	0.50076413
84	0x3f0d2a36	0.55142534
85	0xbf2956e5	-0.66148216
86	0xc029f256	-2.655416
87	0xc039cc7f	-2.9031065
88	0xbffc920f	-1.9732074
89	0xbfe87fd1	-1.8164006
90	0xbf525143	-0.82155246
91	0x3ecd387e	0.40082163
92	0xbe0b3c8c	-0.13597316
93	0x3f1113d1	0.5667086
94	0x3e8332da	0.25624734
95	0xc01ac021	-2.4179766
96	0xc03c2b9b	-2.9401615
97	0x3e983359	0.29726675
98	0xbf82727e	-1.019119
99	0xbf234a6e	-0.63785446
100	0xbfd8714f	-1.6909579
101	0x3f25e75c	0.6480615
102	0x3f5b8cc8	0.8576169
103	0xbe3728c4	-0.17886645
104	0xbee1d05c	-0.44104278
105	0xc060bf0c	-3.5116606
106	0xbf6c8f5a	-0.9240624
107	0xbfe38d02	-1.7777407
108	0x3e97c199	0.2963989
109	0xbe914ecc	-0.2838043
110	0xbf7c2e50	-0.9850817
111	0xbd292b69	-0.041301165
112	0xbeed9b96	-0.46407765
113	0x3f1bf35e	0.60918224
114	0xbdf9b83a	-0.121933416
115	0xc019ec94	-2.4050646
116	0xbfc468cf	-1.5344485
117	0xbfe65b49	-1.7996608
118	0xbf015922	-0.5052663
119	0xbe1ecb47	-0.15507232
120	0xbf8b84c1	-1.0899888
121	0xbe472b3e	-0.1945009
122	0xbf8253e9	-1.0181857
123	0xc0a449b7	-5.1339984
124	0x3d19a238	0.03750822
125	0x3ec71b5d	0.38888064
126	0xbf070600	-0.5274353
127	0xbe7013d6	-0.23445067
128	0xc00c5663	-2.1927726
129	0xbfd55af2	-1.6668379
130	0x3e25e157	0.16199242
131	0xbfccc429	-1.5997363
132	0xbf5ebc86	-0.87006414
133	0x3e67894c	0.22610968
134	0xbe2f6d3b	-0.17131512
135	0x3ef08da2	0.46983057

l3.bias f4 [17]
0	0xbd80d90e	-0.062914
1	0xbd8a46fb	-0.0675182
2	0x3e31a619	0.17348517
3	0x3cd368d2	0.025806818
4	0x3e2da750	0.16958356
5	0xbf06558e	-0.52474296
6	0xbe8c9388	-0.27456307
7	0x3ece4657	0.4028804
8	0x3e6fcadc	0.23417228
9	0x3df6ea42	0.120564
10	0xbf106fe9	-0.5642076
11	0xbdc05834	-0.093918234
12	0xbda82ce6	-0.08211689
13	0xbf3e3736	-0.74302995
14	0xbd8e9d20	-0.06963563
15	0xbd58b788	-0.052909404
16	0xbe33c28f	-0.17554687
